…
_________________________________________________________________
 Layer (type)                Output Shape              Param #   
=================================================================
 input_1 (InputLayer)        [(None, 200, 128, 128,    0         
                             3)]                                 
                                                                 
 time_distributed (TimeDist  (None, 200, 128, 128, 2   784       
 ributed)                    8)                                  
                                                                 
 time_distributed_1 (TimeDi  (None, 200, 64, 64, 28)   0         
 stributed)                                                      
                                                                 
 time_distributed_2 (TimeDi  (None, 200, 64, 64, 28)   112       
 stributed)                                                      
                                                                 
 time_distributed_3 (TimeDi  (None, 200, 64, 64, 28)   0         
 stributed)                                                      
                                                                 
 time_distributed_4 (TimeDi  (None, 200, 64, 64, 28)   7084      
 stributed)                                                      
                                                                 
 time_distributed_5 (TimeDi  (None, 200, 32, 32, 28)   0         
 stributed)                                                      
                                                                 
 time_distributed_6 (TimeDi  (None, 200, 32, 32, 28)   112       
 stributed)                                                      
                                                                 
 time_distributed_7 (TimeDi  (None, 200, 32, 32, 28)   0         
 stributed)                                                      
                                                                 
 time_distributed_8 (TimeDi  (None, 200, 32, 32, 28)   7084      
 stributed)                                                      
                                                                 
 time_distributed_9 (TimeDi  (None, 200, 16, 16, 28)   0         
 stributed)                                                      
                                                                 
 time_distributed_10 (TimeD  (None, 200, 16, 16, 28)   112       
 istributed)                                                     
                                                                 
 time_distributed_11 (TimeD  (None, 200, 16, 16, 28)   0         
 istributed)                                                     
                                                                 
 time_distributed_12 (TimeD  (None, 200, 16, 16, 28)   7084      
 istributed)                                                     
                                                                 
 time_distributed_13 (TimeD  (None, 200, 8, 8, 28)     0         
 istributed)                                                     
                                                                 
 time_distributed_14 (TimeD  (None, 200, 8, 8, 28)     112       
 istributed)                                                     
                                                                 
 time_distributed_15 (TimeD  (None, 200, 8, 8, 28)     0         
 istributed)                                                     
                                                                 
 time_distributed_16 (TimeD  (None, 200, 1792)         0         
 istributed)                                                     
                                                                 
 bidirectional (Bidirection  (None, 200, 128)          950784    
 al)                                                             
                                                                 
 bidirectional_1 (Bidirecti  (None, 128)               98816     
 onal)                                                           
                                                                 
 dense (Dense)               (None, 64)                8256      
                                                                 
 dense_1 (Dense)             (None, 32)                2080      
                                                                 
 dense_2 (Dense)             (None, 16)                528       
                                                                 
 dense_3 (Dense)             (None, 9)                 153       
                                                                 
=================================================================
Total params: 1083101 (4.13 MB)
Trainable params: 1082877 (4.13 MB)
Non-trainable params: 224 (896.00 Byte)
_________________________________________________________________
None
x.shape after flatten: (None, 200, 1792)
x.shape after LSTM: (None, 128)
Model: "model_1"
…
