…
_________________________________________________________________
 Layer (type)                Output Shape              Param #   
=================================================================
 input_1 (InputLayer)        [(None, 10, 128, 128, 3   0         
                             )]                                  
                                                                 
 time_distributed (TimeDist  (None, 10, 128, 128, 32   896       
 ributed)                    )                                   
                                                                 
 time_distributed_1 (TimeDi  (None, 10, 64, 64, 32)    0         
 stributed)                                                      
                                                                 
 time_distributed_2 (TimeDi  (None, 10, 64, 64, 32)    128       
 stributed)                                                      
                                                                 
 time_distributed_3 (TimeDi  (None, 10, 64, 64, 32)    0         
 stributed)                                                      
                                                                 
 time_distributed_4 (TimeDi  (None, 10, 64, 64, 32)    9248      
 stributed)                                                      
                                                                 
 time_distributed_5 (TimeDi  (None, 10, 32, 32, 32)    0         
 stributed)                                                      
                                                                 
 time_distributed_6 (TimeDi  (None, 10, 32, 32, 32)    128       
 stributed)                                                      
                                                                 
 time_distributed_7 (TimeDi  (None, 10, 32, 32, 32)    0         
 stributed)                                                      
                                                                 
 time_distributed_8 (TimeDi  (None, 10, 32, 32, 32)    9248      
 stributed)                                                      
                                                                 
 time_distributed_9 (TimeDi  (None, 10, 16, 16, 32)    0         
 stributed)                                                      
                                                                 
 time_distributed_10 (TimeD  (None, 10, 16, 16, 32)    128       
 istributed)                                                     
                                                                 
 time_distributed_11 (TimeD  (None, 10, 16, 16, 32)    0         
 istributed)                                                     
                                                                 
 time_distributed_12 (TimeD  (None, 10, 16, 16, 32)    9248      
 istributed)                                                     
                                                                 
 time_distributed_13 (TimeD  (None, 10, 8, 8, 32)      0         
 istributed)                                                     
                                                                 
 time_distributed_14 (TimeD  (None, 10, 8, 8, 32)      128       
 istributed)                                                     
                                                                 
 time_distributed_15 (TimeD  (None, 10, 8, 8, 32)      0         
 istributed)                                                     
                                                                 
 time_distributed_16 (TimeD  (None, 10, 2048)          0         
 istributed)                                                     
                                                                 
 dense (Dense)               (None, 10, 2541)          5206509   
                                                                 
=================================================================
Total params: 5235661 (19.97 MB)
Trainable params: 5235405 (19.97 MB)
Non-trainable params: 256 (1.00 KB)
_________________________________________________________________
None
Model: "model_1"
_________________________________________________________________
 Layer (type)                Output Shape              Param #   
…
