…
2023-12-28 08:27:11.802782: I tensorflow/core/common_runtime/gpu/gpu_device.cc:1929] Created device /job:localhost/replica:0/task:0/device:GPU:0 with 4404 MB memory:  -> device: 0, name: NVIDIA GeForce GTX 1660 SUPER, pci bus id: 0000:02:00.0, compute capability: 7.5
x.shape: (None, 16384)
Model: "model"
_________________________________________________________________
 Layer (type)                Output Shape              Param #   
=================================================================
 average_pooling2d_input (I  [(None, 512, 512, 3)]     0         
 nputLayer)                                                      
                                                                 
 average_pooling2d (Average  (None, 128, 128, 3)       0         
 Pooling2D)                                                      
                                                                 
 conv2d (Conv2D)             (None, 128, 128, 4)       112       
                                                                 
 batch_normalization (Batch  (None, 128, 128, 4)       16        
 Normalization)                                                  
                                                                 
 activation (Activation)     (None, 128, 128, 4)       0         
                                                                 
 conv2d_1 (Conv2D)           (None, 128, 128, 4)       148       
                                                                 
 batch_normalization_1 (Bat  (None, 128, 128, 4)       16        
 chNormalization)                                                
                                                                 
 activation_1 (Activation)   (None, 128, 128, 4)       0         
                                                                 
 conv2d_2 (Conv2D)           (None, 128, 128, 4)       148       
                                                                 
 batch_normalization_2 (Bat  (None, 128, 128, 4)       16        
 chNormalization)                                                
                                                                 
 activation_2 (Activation)   (None, 128, 128, 4)       0         
                                                                 
 conv2d_3 (Conv2D)           (None, 128, 128, 4)       148       
                                                                 
 max_pooling2d (MaxPooling2  (None, 64, 64, 4)         0         
 D)                                                              
                                                                 
 batch_normalization_3 (Bat  (None, 64, 64, 4)         16        
 chNormalization)                                                
                                                                 
 activation_3 (Activation)   (None, 64, 64, 4)         0         
                                                                 
 flatten (Flatten)           (None, 16384)             0         
                                                                 
 dense (Dense)               (None, 8192)              134225920 
                                                                 
 dense_1 (Dense)             (None, 4096)              33558528  
                                                                 
 dense_2 (Dense)             (None, 2048)              8390656   
                                                                 
 dense_3 (Dense)             (None, 1024)              2098176   
                                                                 
 dense_4 (Dense)             (None, 512)               524800    
                                                                 
 dense_5 (Dense)             (None, 256)               131328    
                                                                 
 dense_6 (Dense)             (None, 128)               32896     
                                                                 
 dense_7 (Dense)             (None, 64)                8256      
                                                                 
 dense_8 (Dense)             (None, 32)                2080      
                                                                 
 dense_9 (Dense)             (None, 16)                528       
                                                                 
 dense_10 (Dense)            (None, 12)                204       
                                                                 
=================================================================
Total params: 178973992 (682.73 MB)
Trainable params: 178973960 (682.73 MB)
Non-trainable params: 32 (128.00 Byte)
_________________________________________________________________
None
x.shape: (None, 16384)
Model: "model_1"
_________________________________________________________________
 Layer (type)                Output Shape              Param #   
=================================================================
 average_pooling2d_1_input   [(None, 512, 512, 3)]     0         
 (InputLayer)                                                    
                                                                 
 average_pooling2d_1 (Avera  (None, 128, 128, 3)       0         
 gePooling2D)                                                    
                                                                 
 conv2d_4 (Conv2D)           (None, 128, 128, 4)       112       
                                                                 
 batch_normalization_4 (Bat  (None, 128, 128, 4)       16        
 chNormalization)                                                
                                                                 
 activation_4 (Activation)   (None, 128, 128, 4)       0         
                                                                 
 conv2d_5 (Conv2D)           (None, 128, 128, 4)       148       
                                                                 
 batch_normalization_5 (Bat  (None, 128, 128, 4)       16        
 chNormalization)                                                
                                                                 
 activation_5 (Activation)   (None, 128, 128, 4)       0         
                                                                 
 conv2d_6 (Conv2D)           (None, 128, 128, 4)       148       
                                                                 
 batch_normalization_6 (Bat  (None, 128, 128, 4)       16        
 chNormalization)                                                
                                                                 
 activation_6 (Activation)   (None, 128, 128, 4)       0         
                                                                 
 conv2d_7 (Conv2D)           (None, 128, 128, 4)       148       
                                                                 
 max_pooling2d_1 (MaxPoolin  (None, 64, 64, 4)         0         
 g2D)                                                            
                                                                 
 batch_normalization_7 (Bat  (None, 64, 64, 4)         16        
 chNormalization)                                                
                                                                 
 activation_7 (Activation)   (None, 64, 64, 4)         0         
                                                                 
 flatten_1 (Flatten)         (None, 16384)             0         
                                                                 
 dense_11 (Dense)            (None, 8192)              134225920 
                                                                 
 dense_12 (Dense)            (None, 4096)              33558528  
                                                                 
 dense_13 (Dense)            (None, 2048)              8390656   
                                                                 
 dense_14 (Dense)            (None, 1024)              2098176   
                                                                 
 dense_15 (Dense)            (None, 512)               524800    
                                                                 
 dense_16 (Dense)            (None, 256)               131328    
                                                                 
 dense_17 (Dense)            (None, 128)               32896     
                                                                 
 dense_18 (Dense)            (None, 64)                8256      
                                                                 
 dense_19 (Dense)            (None, 32)                2080      
                                                                 
 dense_20 (Dense)            (None, 16)                528       
                                                                 
 dense_21 (Dense)            (None, 12)                204       
                                                                 
=================================================================
Total params: 178973992 (682.73 MB)
Trainable params: 178973960 (682.73 MB)
Non-trainable params: 32 (128.00 Byte)
_________________________________________________________________
None
x.shape: (None, 16384)
Model: "model_2"
_________________________________________________________________
 Layer (type)                Output Shape              Param #   
=================================================================
 average_pooling2d_2_input   [(None, 512, 512, 3)]     0         
 (InputLayer)                                                    
                                                                 
 average_pooling2d_2 (Avera  (None, 128, 128, 3)       0         
 gePooling2D)                                                    
                                                                 
 conv2d_8 (Conv2D)           (None, 128, 128, 4)       112       
                                                                 
 batch_normalization_8 (Bat  (None, 128, 128, 4)       16        
 chNormalization)                                                
                                                                 
 activation_8 (Activation)   (None, 128, 128, 4)       0         
                                                                 
 conv2d_9 (Conv2D)           (None, 128, 128, 4)       148       
                                                                 
 batch_normalization_9 (Bat  (None, 128, 128, 4)       16        
 chNormalization)                                                
                                                                 
 activation_9 (Activation)   (None, 128, 128, 4)       0         
                                                                 
 conv2d_10 (Conv2D)          (None, 128, 128, 4)       148       
                                                                 
 batch_normalization_10 (Ba  (None, 128, 128, 4)       16        
 tchNormalization)                                               
                                                                 
 activation_10 (Activation)  (None, 128, 128, 4)       0         
                                                                 
 conv2d_11 (Conv2D)          (None, 128, 128, 4)       148       
                                                                 
 max_pooling2d_2 (MaxPoolin  (None, 64, 64, 4)         0         
 g2D)                                                            
                                                                 
 batch_normalization_11 (Ba  (None, 64, 64, 4)         16        
 tchNormalization)                                               
                                                                 
 activation_11 (Activation)  (None, 64, 64, 4)         0         
                                                                 
 flatten_2 (Flatten)         (None, 16384)             0         
                                                                 
 dense_22 (Dense)            (None, 8192)              134225920 
                                                                 
 dense_23 (Dense)            (None, 4096)              33558528  
                                                                 
 dense_24 (Dense)            (None, 2048)              8390656   
                                                                 
 dense_25 (Dense)            (None, 1024)              2098176   
                                                                 
 dense_26 (Dense)            (None, 512)               524800    
                                                                 
 dense_27 (Dense)            (None, 256)               131328    
                                                                 
 dense_28 (Dense)            (None, 128)               32896     
                                                                 
 dense_29 (Dense)            (None, 64)                8256      
                                                                 
 dense_30 (Dense)            (None, 32)                2080      
                                                                 
 dense_31 (Dense)            (None, 16)                528       
                                                                 
 dense_32 (Dense)            (None, 12)                204       
                                                                 
=================================================================
Total params: 178973992 (682.73 MB)
Trainable params: 178973960 (682.73 MB)
Non-trainable params: 32 (128.00 Byte)
_________________________________________________________________
None
WARNING: Version mismatch detected: You are trying to connect to a simulator that might be incompatible with this API 
…
