…
2024-01-20 00:41:07.761694: I tensorflow/core/common_runtime/gpu/gpu_device.cc:1929] Created device /job:localhost/replica:0/task:0/device:GPU:0 with 4382 MB memory:  -> device: 0, name: NVIDIA GeForce GTX 1660 SUPER, pci bus id: 0000:02:00.0, compute capability: 7.5
x.shape after flatten: (None, 20, 4096)
x.shape after LSTM: (None, 128)
Model: "model"
_________________________________________________________________
 Layer (type)                Output Shape              Param #   
=================================================================
 input_1 (InputLayer)        [(None, 20, 128, 128, 3   0         
                             )]                                  
                                                                 
 time_distributed (TimeDist  (None, 20, 128, 128, 1)   28        
 ributed)                                                        
                                                                 
 time_distributed_1 (TimeDi  (None, 20, 64, 64, 1)     0         
 stributed)                                                      
                                                                 
 time_distributed_2 (TimeDi  (None, 20, 64, 64, 1)     4         
 stributed)                                                      
                                                                 
 time_distributed_3 (TimeDi  (None, 20, 64, 64, 1)     0         
 stributed)                                                      
                                                                 
 time_distributed_4 (TimeDi  (None, 20, 4096)          0         
 stributed)                                                      
                                                                 
 bidirectional (Bidirection  (None, 20, 128)           2130432   
 al)                                                             
                                                                 
 bidirectional_1 (Bidirecti  (None, 128)               98816     
 onal)                                                           
                                                                 
 dense (Dense)               (None, 64)                8256      
                                                                 
 dense_1 (Dense)             (None, 32)                2080      
                                                                 
 dense_2 (Dense)             (None, 16)                528       
                                                                 
 dense_3 (Dense)             (None, 8)                 136       
                                                                 
 dense_4 (Dense)             (None, 6)                 54        
                                                                 
=================================================================
Total params: 2240334 (8.55 MB)
Trainable params: 2240332 (8.55 MB)
Non-trainable params: 2 (8.00 Byte)
_________________________________________________________________
None
x.shape after flatten: (None, 20, 4096)
x.shape after LSTM: (None, 128)
Model: "model_1"
_________________________________________________________________
 Layer (type)                Output Shape              Param #   
=================================================================
 input_2 (InputLayer)        [(None, 20, 128, 128, 3   0         
                             )]                                  
                                                                 
 time_distributed_5 (TimeDi  (None, 20, 128, 128, 1)   28        
 stributed)                                                      
                                                                 
 time_distributed_6 (TimeDi  (None, 20, 64, 64, 1)     0         
 stributed)                                                      
                                                                 
 time_distributed_7 (TimeDi  (None, 20, 64, 64, 1)     4         
 stributed)                                                      
                                                                 
 time_distributed_8 (TimeDi  (None, 20, 64, 64, 1)     0         
 stributed)                                                      
                                                                 
 time_distributed_9 (TimeDi  (None, 20, 4096)          0         
 stributed)                                                      
                                                                 
 bidirectional_2 (Bidirecti  (None, 20, 128)           2130432   
 onal)                                                           
                                                                 
 bidirectional_3 (Bidirecti  (None, 128)               98816     
 onal)                                                           
                                                                 
 dense_5 (Dense)             (None, 64)                8256      
                                                                 
 dense_6 (Dense)             (None, 32)                2080      
                                                                 
 dense_7 (Dense)             (None, 16)                528       
                                                                 
 dense_8 (Dense)             (None, 8)                 136       
                                                                 
 dense_9 (Dense)             (None, 6)                 54        
                                                                 
=================================================================
Total params: 2240334 (8.55 MB)
Trainable params: 2240332 (8.55 MB)
Non-trainable params: 2 (8.00 Byte)
_________________________________________________________________
None
x.shape after flatten: (None, 20, 4096)
x.shape after LSTM: (None, 128)
Model: "model_2"
_________________________________________________________________
 Layer (type)                Output Shape              Param #   
=================================================================
 input_3 (InputLayer)        [(None, 20, 128, 128, 3   0         
                             )]                                  
                                                                 
 time_distributed_10 (TimeD  (None, 20, 128, 128, 1)   28        
 istributed)                                                     
                                                                 
 time_distributed_11 (TimeD  (None, 20, 64, 64, 1)     0         
 istributed)                                                     
                                                                 
 time_distributed_12 (TimeD  (None, 20, 64, 64, 1)     4         
 istributed)                                                     
                                                                 
 time_distributed_13 (TimeD  (None, 20, 64, 64, 1)     0         
 istributed)                                                     
                                                                 
 time_distributed_14 (TimeD  (None, 20, 4096)          0         
 istributed)                                                     
                                                                 
 bidirectional_4 (Bidirecti  (None, 20, 128)           2130432   
 onal)                                                           
                                                                 
 bidirectional_5 (Bidirecti  (None, 128)               98816     
 onal)                                                           
                                                                 
 dense_10 (Dense)            (None, 64)                8256      
                                                                 
 dense_11 (Dense)            (None, 32)                2080      
                                                                 
 dense_12 (Dense)            (None, 16)                528       
                                                                 
 dense_13 (Dense)            (None, 8)                 136       
                                                                 
 dense_14 (Dense)            (None, 6)                 54        
                                                                 
=================================================================
Total params: 2240334 (8.55 MB)
Trainable params: 2240332 (8.55 MB)
Non-trainable params: 2 (8.00 Byte)
_________________________________________________________________
None
2024-01-20 00:41:12.219063: I external/local_xla/xla/stream_executor/cuda/cuda_dnn.cc:454] Loaded cuDNN version 8904
…
