…
_________________________________________________________________
 Layer (type)                Output Shape              Param #   
=================================================================
 input_1 (InputLayer)        [(None, 20, 128, 128, 3   0         
                             )]                                  
                                                                 
 time_distributed (TimeDist  (None, 20, 128, 128, 16   448       
 ributed)                    )                                   
                                                                 
 time_distributed_1 (TimeDi  (None, 20, 64, 64, 16)    0         
 stributed)                                                      
                                                                 
 time_distributed_2 (TimeDi  (None, 20, 64, 64, 16)    64        
 stributed)                                                      
                                                                 
 time_distributed_3 (TimeDi  (None, 20, 64, 64, 16)    0         
 stributed)                                                      
                                                                 
 time_distributed_4 (TimeDi  (None, 20, 64, 64, 16)    2320      
 stributed)                                                      
                                                                 
 time_distributed_5 (TimeDi  (None, 20, 32, 32, 16)    0         
 stributed)                                                      
                                                                 
 time_distributed_6 (TimeDi  (None, 20, 32, 32, 16)    64        
 stributed)                                                      
                                                                 
 time_distributed_7 (TimeDi  (None, 20, 32, 32, 16)    0         
 stributed)                                                      
                                                                 
 time_distributed_8 (TimeDi  (None, 20, 32, 32, 16)    2320      
 stributed)                                                      
                                                                 
 time_distributed_9 (TimeDi  (None, 20, 16, 16, 16)    0         
 stributed)                                                      
                                                                 
 time_distributed_10 (TimeD  (None, 20, 16, 16, 16)    64        
 istributed)                                                     
                                                                 
 time_distributed_11 (TimeD  (None, 20, 16, 16, 16)    0         
 istributed)                                                     
                                                                 
 time_distributed_12 (TimeD  (None, 20, 16, 16, 16)    2320      
 istributed)                                                     
                                                                 
 time_distributed_13 (TimeD  (None, 20, 8, 8, 16)      0         
 istributed)                                                     
                                                                 
 time_distributed_14 (TimeD  (None, 20, 8, 8, 16)      64        
 istributed)                                                     
                                                                 
 time_distributed_15 (TimeD  (None, 20, 8, 8, 16)      0         
 istributed)                                                     
                                                                 
 time_distributed_16 (TimeD  (None, 20, 1024)          0         
 istributed)                                                     
                                                                 
 bidirectional (Bidirection  (None, 20, 128)           557568    
 al)                                                             
                                                                 
 bidirectional_1 (Bidirecti  (None, 128)               98816     
 onal)                                                           
                                                                 
 dense (Dense)               (None, 64)                8256      
                                                                 
 dense_1 (Dense)             (None, 32)                2080      
                                                                 
 dense_2 (Dense)             (None, 16)                528       
                                                                 
 dense_3 (Dense)             (None, 12)                204       
                                                                 
=================================================================
Total params: 675116 (2.58 MB)
Trainable params: 674988 (2.57 MB)
Non-trainable params: 128 (512.00 Byte)
_________________________________________________________________
None
x.shape after flatten: (None, 20, 1024)
x.shape after LSTM: (None, 128)
Model: "model_1"
…
