…
2024-01-12 20:16:23.192518: I tensorflow/core/common_runtime/gpu/gpu_device.cc:1929] Created device /job:localhost/replica:0/task:0/device:GPU:0 with 4409 MB memory:  -> device: 0, name: NVIDIA GeForce GTX 1660 SUPER, pci bus id: 0000:02:00.0, compute capability: 7.5
Model: "model"
_________________________________________________________________
 Layer (type)                Output Shape              Param #   
=================================================================
 input_1 (InputLayer)        [(None, 10, 128, 128, 3   0         
                             )]                                  
                                                                 
 time_distributed (TimeDist  (None, 10, 128, 128, 4)   112       
 ributed)                                                        
                                                                 
 time_distributed_1 (TimeDi  (None, 10, 64, 64, 4)     0         
 stributed)                                                      
                                                                 
 time_distributed_2 (TimeDi  (None, 10, 64, 64, 4)     16        
 stributed)                                                      
                                                                 
 time_distributed_3 (TimeDi  (None, 10, 64, 64, 4)     0         
 stributed)                                                      
                                                                 
 time_distributed_4 (TimeDi  (None, 10, 64, 64, 4)     148       
 stributed)                                                      
                                                                 
 time_distributed_5 (TimeDi  (None, 10, 32, 32, 4)     0         
 stributed)                                                      
                                                                 
 time_distributed_6 (TimeDi  (None, 10, 32, 32, 4)     16        
 stributed)                                                      
                                                                 
 time_distributed_7 (TimeDi  (None, 10, 32, 32, 4)     0         
 stributed)                                                      
                                                                 
 time_distributed_8 (TimeDi  (None, 10, 32, 32, 4)     148       
 stributed)                                                      
                                                                 
 time_distributed_9 (TimeDi  (None, 10, 16, 16, 4)     0         
 stributed)                                                      
                                                                 
 time_distributed_10 (TimeD  (None, 10, 16, 16, 4)     16        
 istributed)                                                     
                                                                 
 time_distributed_11 (TimeD  (None, 10, 16, 16, 4)     0         
 istributed)                                                     
                                                                 
 time_distributed_12 (TimeD  (None, 10, 16, 16, 4)     148       
 istributed)                                                     
                                                                 
 time_distributed_13 (TimeD  (None, 10, 8, 8, 4)       0         
 istributed)                                                     
                                                                 
 time_distributed_14 (TimeD  (None, 10, 8, 8, 4)       16        
 istributed)                                                     
                                                                 
 time_distributed_15 (TimeD  (None, 10, 8, 8, 4)       0         
 istributed)                                                     
                                                                 
 time_distributed_16 (TimeD  (None, 10, 256)           0         
 istributed)                                                     
                                                                 
 time_distributed_17 (TimeD  (None, 10, 2541)          653037    
 istributed)                                                     
                                                                 
=================================================================
Total params: 653657 (2.49 MB)
Trainable params: 653625 (2.49 MB)
Non-trainable params: 32 (128.00 Byte)
_________________________________________________________________
None
Model: "model_1"
_________________________________________________________________
 Layer (type)                Output Shape              Param #   
=================================================================
 input_2 (InputLayer)        [(None, 10, 128, 128, 3   0         
                             )]                                  
                                                                 
 time_distributed_18 (TimeD  (None, 10, 128, 128, 4)   112       
 istributed)                                                     
                                                                 
 time_distributed_19 (TimeD  (None, 10, 64, 64, 4)     0         
 istributed)                                                     
                                                                 
 time_distributed_20 (TimeD  (None, 10, 64, 64, 4)     16        
 istributed)                                                     
                                                                 
 time_distributed_21 (TimeD  (None, 10, 64, 64, 4)     0         
 istributed)                                                     
                                                                 
 time_distributed_22 (TimeD  (None, 10, 64, 64, 4)     148       
 istributed)                                                     
                                                                 
 time_distributed_23 (TimeD  (None, 10, 32, 32, 4)     0         
 istributed)                                                     
                                                                 
 time_distributed_24 (TimeD  (None, 10, 32, 32, 4)     16        
 istributed)                                                     
                                                                 
 time_distributed_25 (TimeD  (None, 10, 32, 32, 4)     0         
 istributed)                                                     
                                                                 
 time_distributed_26 (TimeD  (None, 10, 32, 32, 4)     148       
 istributed)                                                     
                                                                 
 time_distributed_27 (TimeD  (None, 10, 16, 16, 4)     0         
 istributed)                                                     
                                                                 
 time_distributed_28 (TimeD  (None, 10, 16, 16, 4)     16        
 istributed)                                                     
                                                                 
 time_distributed_29 (TimeD  (None, 10, 16, 16, 4)     0         
 istributed)                                                     
                                                                 
 time_distributed_30 (TimeD  (None, 10, 16, 16, 4)     148       
 istributed)                                                     
                                                                 
 time_distributed_31 (TimeD  (None, 10, 8, 8, 4)       0         
 istributed)                                                     
                                                                 
 time_distributed_32 (TimeD  (None, 10, 8, 8, 4)       16        
 istributed)                                                     
                                                                 
 time_distributed_33 (TimeD  (None, 10, 8, 8, 4)       0         
 istributed)                                                     
                                                                 
 time_distributed_34 (TimeD  (None, 10, 256)           0         
 istributed)                                                     
                                                                 
 time_distributed_35 (TimeD  (None, 10, 2541)          653037    
 istributed)                                                     
                                                                 
=================================================================
Total params: 653657 (2.49 MB)
Trainable params: 653625 (2.49 MB)
Non-trainable params: 32 (128.00 Byte)
_________________________________________________________________
None
Model: "model_2"
_________________________________________________________________
 Layer (type)                Output Shape              Param #   
=================================================================
 input_3 (InputLayer)        [(None, 10, 128, 128, 3   0         
                             )]                                  
                                                                 
 time_distributed_36 (TimeD  (None, 10, 128, 128, 4)   112       
 istributed)                                                     
                                                                 
 time_distributed_37 (TimeD  (None, 10, 64, 64, 4)     0         
 istributed)                                                     
                                                                 
 time_distributed_38 (TimeD  (None, 10, 64, 64, 4)     16        
 istributed)                                                     
                                                                 
 time_distributed_39 (TimeD  (None, 10, 64, 64, 4)     0         
 istributed)                                                     
                                                                 
 time_distributed_40 (TimeD  (None, 10, 64, 64, 4)     148       
 istributed)                                                     
                                                                 
 time_distributed_41 (TimeD  (None, 10, 32, 32, 4)     0         
 istributed)                                                     
                                                                 
 time_distributed_42 (TimeD  (None, 10, 32, 32, 4)     16        
 istributed)                                                     
                                                                 
 time_distributed_43 (TimeD  (None, 10, 32, 32, 4)     0         
 istributed)                                                     
                                                                 
 time_distributed_44 (TimeD  (None, 10, 32, 32, 4)     148       
 istributed)                                                     
                                                                 
 time_distributed_45 (TimeD  (None, 10, 16, 16, 4)     0         
 istributed)                                                     
                                                                 
 time_distributed_46 (TimeD  (None, 10, 16, 16, 4)     16        
 istributed)                                                     
                                                                 
 time_distributed_47 (TimeD  (None, 10, 16, 16, 4)     0         
 istributed)                                                     
                                                                 
 time_distributed_48 (TimeD  (None, 10, 16, 16, 4)     148       
 istributed)                                                     
                                                                 
 time_distributed_49 (TimeD  (None, 10, 8, 8, 4)       0         
 istributed)                                                     
                                                                 
 time_distributed_50 (TimeD  (None, 10, 8, 8, 4)       16        
 istributed)                                                     
                                                                 
 time_distributed_51 (TimeD  (None, 10, 8, 8, 4)       0         
 istributed)                                                     
                                                                 
 time_distributed_52 (TimeD  (None, 10, 256)           0         
 istributed)                                                     
                                                                 
 time_distributed_53 (TimeD  (None, 10, 2541)          653037    
 istributed)                                                     
                                                                 
=================================================================
Total params: 653657 (2.49 MB)
Trainable params: 653625 (2.49 MB)
Non-trainable params: 32 (128.00 Byte)
_________________________________________________________________
None
Traceback (most recent call last):
…
