…
2023-12-28 18:26:44.495538: I tensorflow/core/common_runtime/gpu/gpu_device.cc:1929] Created device /job:localhost/replica:0/task:0/device:GPU:0 with 4407 MB memory:  -> device: 0, name: NVIDIA GeForce GTX 1660 SUPER, pci bus id: 0000:02:00.0, compute capability: 7.5
x.shape: (None, 1792)
Model: "model"
_________________________________________________________________
 Layer (type)                Output Shape              Param #   
=================================================================
 average_pooling2d_input (I  [(None, 512, 512, 3)]     0         
 nputLayer)                                                      
                                                                 
 average_pooling2d (Average  (None, 128, 128, 3)       0         
 Pooling2D)                                                      
                                                                 
 conv2d (Conv2D)             (None, 128, 128, 28)      784       
                                                                 
 max_pooling2d (MaxPooling2  (None, 64, 64, 28)        0         
 D)                                                              
                                                                 
 batch_normalization (Batch  (None, 64, 64, 28)        112       
 Normalization)                                                  
                                                                 
 activation (Activation)     (None, 64, 64, 28)        0         
                                                                 
 conv2d_1 (Conv2D)           (None, 64, 64, 28)        7084      
                                                                 
 max_pooling2d_1 (MaxPoolin  (None, 32, 32, 28)        0         
 g2D)                                                            
                                                                 
 batch_normalization_1 (Bat  (None, 32, 32, 28)        112       
 chNormalization)                                                
                                                                 
 activation_1 (Activation)   (None, 32, 32, 28)        0         
                                                                 
 conv2d_2 (Conv2D)           (None, 32, 32, 28)        7084      
                                                                 
 max_pooling2d_2 (MaxPoolin  (None, 16, 16, 28)        0         
 g2D)                                                            
                                                                 
 batch_normalization_2 (Bat  (None, 16, 16, 28)        112       
 chNormalization)                                                
                                                                 
 activation_2 (Activation)   (None, 16, 16, 28)        0         
                                                                 
 conv2d_3 (Conv2D)           (None, 16, 16, 28)        7084      
                                                                 
 max_pooling2d_3 (MaxPoolin  (None, 8, 8, 28)          0         
 g2D)                                                            
                                                                 
 batch_normalization_3 (Bat  (None, 8, 8, 28)          112       
 chNormalization)                                                
                                                                 
 activation_3 (Activation)   (None, 8, 8, 28)          0         
                                                                 
 flatten (Flatten)           (None, 1792)              0         
                                                                 
 dense (Dense)               (None, 2541)              4556013   
                                                                 
=================================================================
Total params: 4578497 (17.47 MB)
Trainable params: 4578273 (17.46 MB)
Non-trainable params: 224 (896.00 Byte)
_________________________________________________________________
None
x.shape: (None, 1792)
Model: "model_1"
_________________________________________________________________
 Layer (type)                Output Shape              Param #   
=================================================================
 average_pooling2d_1_input   [(None, 512, 512, 3)]     0         
 (InputLayer)                                                    
                                                                 
 average_pooling2d_1 (Avera  (None, 128, 128, 3)       0         
 gePooling2D)                                                    
                                                                 
 conv2d_4 (Conv2D)           (None, 128, 128, 28)      784       
                                                                 
 max_pooling2d_4 (MaxPoolin  (None, 64, 64, 28)        0         
 g2D)                                                            
                                                                 
 batch_normalization_4 (Bat  (None, 64, 64, 28)        112       
 chNormalization)                                                
                                                                 
 activation_4 (Activation)   (None, 64, 64, 28)        0         
                                                                 
 conv2d_5 (Conv2D)           (None, 64, 64, 28)        7084      
                                                                 
 max_pooling2d_5 (MaxPoolin  (None, 32, 32, 28)        0         
 g2D)                                                            
                                                                 
 batch_normalization_5 (Bat  (None, 32, 32, 28)        112       
 chNormalization)                                                
                                                                 
 activation_5 (Activation)   (None, 32, 32, 28)        0         
                                                                 
 conv2d_6 (Conv2D)           (None, 32, 32, 28)        7084      
                                                                 
 max_pooling2d_6 (MaxPoolin  (None, 16, 16, 28)        0         
 g2D)                                                            
                                                                 
 batch_normalization_6 (Bat  (None, 16, 16, 28)        112       
 chNormalization)                                                
                                                                 
 activation_6 (Activation)   (None, 16, 16, 28)        0         
                                                                 
 conv2d_7 (Conv2D)           (None, 16, 16, 28)        7084      
                                                                 
 max_pooling2d_7 (MaxPoolin  (None, 8, 8, 28)          0         
 g2D)                                                            
                                                                 
 batch_normalization_7 (Bat  (None, 8, 8, 28)          112       
 chNormalization)                                                
                                                                 
 activation_7 (Activation)   (None, 8, 8, 28)          0         
                                                                 
 flatten_1 (Flatten)         (None, 1792)              0         
                                                                 
 dense_1 (Dense)             (None, 2541)              4556013   
                                                                 
=================================================================
Total params: 4578497 (17.47 MB)
Trainable params: 4578273 (17.46 MB)
Non-trainable params: 224 (896.00 Byte)
_________________________________________________________________
None
x.shape: (None, 1792)
Model: "model_2"
_________________________________________________________________
 Layer (type)                Output Shape              Param #   
=================================================================
 average_pooling2d_2_input   [(None, 512, 512, 3)]     0         
 (InputLayer)                                                    
                                                                 
 average_pooling2d_2 (Avera  (None, 128, 128, 3)       0         
 gePooling2D)                                                    
                                                                 
 conv2d_8 (Conv2D)           (None, 128, 128, 28)      784       
                                                                 
 max_pooling2d_8 (MaxPoolin  (None, 64, 64, 28)        0         
 g2D)                                                            
                                                                 
 batch_normalization_8 (Bat  (None, 64, 64, 28)        112       
 chNormalization)                                                
                                                                 
 activation_8 (Activation)   (None, 64, 64, 28)        0         
                                                                 
 conv2d_9 (Conv2D)           (None, 64, 64, 28)        7084      
                                                                 
 max_pooling2d_9 (MaxPoolin  (None, 32, 32, 28)        0         
 g2D)                                                            
                                                                 
 batch_normalization_9 (Bat  (None, 32, 32, 28)        112       
 chNormalization)                                                
                                                                 
 activation_9 (Activation)   (None, 32, 32, 28)        0         
                                                                 
 conv2d_10 (Conv2D)          (None, 32, 32, 28)        7084      
                                                                 
 max_pooling2d_10 (MaxPooli  (None, 16, 16, 28)        0         
 ng2D)                                                           
                                                                 
 batch_normalization_10 (Ba  (None, 16, 16, 28)        112       
 tchNormalization)                                               
                                                                 
 activation_10 (Activation)  (None, 16, 16, 28)        0         
                                                                 
 conv2d_11 (Conv2D)          (None, 16, 16, 28)        7084      
                                                                 
 max_pooling2d_11 (MaxPooli  (None, 8, 8, 28)          0         
 ng2D)                                                           
                                                                 
 batch_normalization_11 (Ba  (None, 8, 8, 28)          112       
 tchNormalization)                                               
                                                                 
 activation_11 (Activation)  (None, 8, 8, 28)          0         
                                                                 
 flatten_2 (Flatten)         (None, 1792)              0         
                                                                 
 dense_2 (Dense)             (None, 2541)              4556013   
                                                                 
=================================================================
Total params: 4578497 (17.47 MB)
Trainable params: 4578273 (17.46 MB)
Non-trainable params: 224 (896.00 Byte)
_________________________________________________________________
None
Terminated
(Allegedly) no exception occurred for run at count 1. CARLA Simulator may have crashed.
…
